…
    <url>/2020/10/12/vgg16/</url>
    <content><![CDATA[<p>模型结构</p>
<div class="highlight-wrap"autocomplete="off" autocorrect="off" autocapitalize="off" spellcheck="false" contenteditable="true"data-rel="SHELL"><figure class="iseeu highlight /shell"><table><tr><td class="code"><pre><span class="line">_________________________________________________________________</span><br><span class="line">Layer (type)                 Output Shape              Param #</span><br><span class="line">=================================================================</span><br><span class="line">input_1 (InputLayer)         (None, 224, 224, 3)       0</span><br><span class="line">_________________________________________________________________</span><br><span class="line">block1_conv1 (Conv2D)        (None, 224, 224, 64)      1792</span><br><span class="line">_________________________________________________________________</span><br><span class="line">block1_conv2 (Conv2D)        (None, 224, 224, 64)      36928</span><br><span class="line">_________________________________________________________________</span><br><span class="line">block1_pool (MaxPooling2D)   (None, 112, 112, 64)      0</span><br><span class="line">_________________________________________________________________</span><br><span class="line">block2_conv1 (Conv2D)        (None, 112, 112, 128)     73856</span><br><span class="line">_________________________________________________________________</span><br><span class="line">block2_conv2 (Conv2D)        (None, 112, 112, 128)     147584</span><br><span class="line">_________________________________________________________________</span><br><span class="line">block2_pool (MaxPooling2D)   (None, 56, 56, 128)       0</span><br><span class="line">_________________________________________________________________</span><br><span class="line">block3_conv1 (Conv2D)        (None, 56, 56, 256)       295168</span><br><span class="line">_________________________________________________________________</span><br><span class="line">block3_conv2 (Conv2D)        (None, 56, 56, 256)       590080</span><br><span class="line">_________________________________________________________________</span><br><span class="line">block3_conv3 (Conv2D)        (None, 56, 56, 256)       590080</span><br><span class="line">_________________________________________________________________</span><br><span class="line">block3_pool (MaxPooling2D)   (None, 28, 28, 256)       0</span><br><span class="line">_________________________________________________________________</span><br><span class="line">block4_conv1 (Conv2D)        (None, 28, 28, 512)       1180160</span><br><span class="line">_________________________________________________________________</span><br><span class="line">block4_conv2 (Conv2D)        (None, 28, 28, 512)       2359808</span><br><span class="line">_________________________________________________________________</span><br><span class="line">block4_conv3 (Conv2D)        (None, 28, 28, 512)       2359808</span><br><span class="line">_________________________________________________________________</span><br><span class="line">block4_pool (MaxPooling2D)   (None, 14, 14, 512)       0</span><br><span class="line">_________________________________________________________________</span><br><span class="line">block5_conv1 (Conv2D)        (None, 14, 14, 512)       2359808</span><br><span class="line">_________________________________________________________________</span><br><span class="line">block5_conv2 (Conv2D)        (None, 14, 14, 512)       2359808</span><br><span class="line">_________________________________________________________________</span><br><span class="line">block5_conv3 (Conv2D)        (None, 14, 14, 512)       2359808</span><br><span class="line">_________________________________________________________________</span><br><span class="line">block5_pool (MaxPooling2D)   (None, 7, 7, 512)         0</span><br><span class="line">_________________________________________________________________</span><br><span class="line">flatten (Flatten)            (None, 25088)             0</span><br><span class="line">_________________________________________________________________</span><br><span class="line">fullc1 (Dense)               (None, 4096)              102764544</span><br><span class="line">_________________________________________________________________</span><br><span class="line">fullc2 (Dense)               (None, 4096)              16781312</span><br><span class="line">fullc3 (Dense)               (None, 20)                81940</span><br><span class="line">=================================================================</span><br><span class="line">Total params: 134,342,484</span><br><span class="line">Trainable params: 134,342,484</span><br><span class="line">Non-trainable params: 0</span><br><span class="line">_________________________________________________________________</span><br></pre></td></tr></table></figure></div>
…
